Assets/MoveToGoal.onnx (onnx, 73426 bytes, 7 tensors)

network_body._body_endoder.seq_layers.0.weight f4 [128, 6]
-0.23590748 -0.61146396 -0.14538623 -0.18670948 -0.5535141 -0.25910816 0.08857048 -0.11044804
-0.010310269 -0.20988299 -0.108520426 0.30653742 -0.20459722 -0.10035619 0.46819782 -1.1037369
-0.48855028 0.31423664 -0.077610046 0.1136071 0.2193308 0.5468346 0.18458806 0.2841164
0.41400433 -0.0009029346 0.16784176 -0.6510848 0.11588595 -0.101666875 0.2630385 -0.40824458
0.941313 0.68860865 -0.64671487 0.32573715 0.08295796 -0.46816957 0.3436228 0.24271286
-0.19498324 0.8355924 -0.22298206 1.0123949 0.16041133 0.046185855 0.13477914 0.56390417
-0.361685 -0.334115 -0.21302837 0.27672175 -0.1326723 -0.44872966 0.4253083 -0.21726711
-0.14920844 0.2860137 0.44518137 -0.082849346 -0.13307828 -0.027651668 0.05825553 -0.09538423
0.33579144 -0.2539565 -0.07509389 -0.3539557 -0.47894964 -0.09365822 -0.48614436 -0.70567954
0.6370039 -0.22928065 0.45061126 -0.045856275 -0.8635169 -0.7559346 -0.32345495 -0.33406764
0.30462563 -1.0087605 0.06258849 -0.3489056 0.20695736 -0.81950545 0.110065565 -0.13465597
0.18492478 0.60986036 0.11842472 -0.54925674 -0.060029916 -0.051009085 0.23863322 -0.2204359
0.054787308 0.8944945 -0.67685074 0.21623288 0.1169868 -0.4313112 0.14484584 -0.60138375
-0.19313748 -0.057328157 0.25958237 0.174775 0.026570553 -0.26604617 0.43147257 0.55442846
-0.26063442 0.04659823 0.18781026 0.6582646 1.0340271 -0.21254435 -0.3608986 -0.4969772
0.39544845 -0.3910972 0.61210394 0.027476953 0.16915452 0.23693264 -0.86488736 0.534246
0.17472143 -0.68262786 -0.3526443 0.14613223 0.04587613 0.07097034 -0.1662415 0.20750968
0.46496555 -0.20863056 0.19243808 -0.60293484 0.19605727 -0.59377444 -0.1727206 0.1373149
-0.5384479 -0.09012727 -0.87934816 0.0783385 0.19904654 -0.3035843 -0.8717851 -0.17356068
0.2331828 0.7229655 -0.37551793 -0.5778619 0.35226744 0.87559164 -0.57763964 -0.17181617
0.44897437 0.32226625 0.19184826 0.49206394 -0.49953938 0.26117718 -0.28195494 0.14155856
-0.021844469 -0.04696877 -1.0237559 -0.33686545 0.044219617 0.1794312 -1.2990465 -0.3560708
0.4026597 -0.19836544 -0.5191512 0.46539524 -0.063166864 -0.23089957 0.27910542 0.2379113
0.23720175 -0.34169844 0.26626703 0.11676604 -0.050526455 -0.4473834 -0.55495113 0.43750158
-0.787563 -0.69289064 0.025618628 0.5354181 -0.1889535 0.46548507 -0.46330774 0.110453814
0.15520152 0.32252792 0.6159234 0.18401466 -0.022154644 0.57380617 0.21782726 -0.5079906
-0.3604237 0.06818385 -0.17561519 0.40753034 -0.5424954 -0.04399558 -0.38548994 0.5177457
0.15625116 -0.008453941 -0.33195657 -0.28362432 0.37481728 0.72683424 0.5098763 0.0912456
-0.16453889 -0.44900167 -0.1443148 0.25194335 -0.022601604 0.83799326 0.098131575 0.03773076
0.42281047 -0.45309237 0.2892123 -0.5594988 0.6353625 -0.105860755 0.2707544 0.33343852
-0.09858827 -0.60492873 -0.5389859 0.36894298 0.06824155 0.32026738 0.39151517 -0.1165933
-0.15013675 -0.15237463 -0.3030721 0.18774106 -0.04032925 -0.07658531 0.1397453 -0.46699667
00000000: bb91 71be e788 1cbf 21e0 14be c530 3fbe
00000010: 1ab3 0dbf d3a9 84be 7164 b53d 9532 e2bd
00000020: 67ec 28bc 91eb 56be f53f debd 79f2 9c3e
00000030: ef81 51be 8c87 cdbd a0b7 ef3e 4047 8dbf
00000040: 4323 fabe a0e3 a03e 04f2 9ebd d7aa e83d
00000050: 4198 603e 5afd 0b3f a704 3d3e b477 913e
00000060: 60f8 d33e eab2 6cba b6de 2b3e 7ead 26bf
00000070: 9d55 ed3d b936 d0bd fbac 863e 6f05 d1be
00000080: e4f9 703f a848 303f 1b8f 25bf 05c7 a63e
00000090: dde5 a93d ecb3 efbe 54ef af3e b889 783e
000000a0: b0a9 47be 62e9 553f 6955 64be 2896 813f
000000b0: de42 243e 612d 3d3d 8b03 0a3e 065c 103f
000000c0: c72e b9be 1f11 abbe 1c24 5abe 79ae 8d3e
000000d0: 3fdb 07be e5bf e5be 02c2 d93e 457b 5ebe
000000e0: 19ca 18be 6370 923e d0ee e33e ebac a9bd
000000f0: ac45 08be c085 e2bc 5a9d 6e3d cf58 c3bd
00000100: dbec ab3e 9606 82be d3ca 99bd ae39 b5be
00000110: e338 f5be e1cf bfbd eae7 f8be 6aa7 34bf
00000120: b012 233f 8cc8 6abe 85b6 e63e cad3 3bbd
00000130: 720f 5dbf ee84 41bf e39b a5be ea0a abbe
00000140: e4f7 9b3e 101f 81bf 652e 803d c1a3 b2be
00000150: a1ec 533e 1ccb 51bf 0e6a e13d 41e3 09be
00000160: ec5c 3d3e cf1f 1c3f a988 f23d 179c 0cbf
00000170: eee1 75bd e7ee 50bd 445c 743e f3b9 61be
00000180: a868 603d 97fd 643f 1746 2dbf 276c 5d3e
00000190: c796 ef3d d2d4 dcbe 7852 143e 49f4 19bf
000001a0: d5c5 45be eed0 6abd fbe7 843e 38f8 323e
000001b0: 7daa d93c 3437 88be f9e9 dc3e 06ef 0d3f
000001c0: e071 85be c9dd 3e3d 5551 403e 0784 283f
000001d0: 005b 843f 3aa5 59be b4c7 b8be cc73 febe
000001e0: 3878 ca3e e43d c8be d8b2 1c3f 5917 e13c
000001f0: d836 2d3e 789e 723e 4269 5dbf 59c4 083f
00000200: 2dea 323e b3c0 2ebf cb8d b4be b0a3 153e
00000210: 9ce8 3b3d e658 913d 363b 2abe 6b7d 543e
00000220: f70f ee3e 40a3 55be 7d0e 453e f059 1abf
00000230: 3dc3 483e 9a01 18bf abdd 30be 479c 0c3e
00000240: b9d7 09bf a594 b8bd f61c 61bf ef6f a03d
00000250: dbd2 4b3e 676f 9bbe 4f2d 5fbf e4b9 31be
00000260: 79c7 6e3e 4414 393f e343 c0be c2ee 13bf
00000270: 665c b43e c626 603f 31e0 13bf 94f0 2fbe
00000280: f8df e53e 1500 a53e df73 443e ceef fb3e
00000290: a0c3 ffbe 04b9 853e 665c 90be baf4 103e
000002a0: 2cf3 b2bc 5362 40bd 6f0a 83bf a179 acbe
000002b0: a11f 353d d0bc 373e 2847 a6bf e94e b6be
000002c0: 6a29 ce3e 4f20 4bbe 18e7 04bf 4948 ee3e
000002d0: a15d 81bd f070 6cbe e8e6 8e3e 059f 733e
000002e0: 04e5 723e 19f3 aebe 2754 883e 0923 ef3d
000002f0: d4f4 4ebd 700f e5be 4711 0ebf 3500 e03e
00000300: bb9d 49bf 4861 31bf 28de d13c 2911 093f
00000310: 077d 41be 0f54 ee3e ac36 edbe 9c35 e23d
00000320: 26ed 1e3e 6122 a53e 28ad 1d3f 576e 3c3e
00000330: a87d b5bc f6e4 123f 1c0e 5f3e ac0b 02bf
00000340: 7589 b8be f9a3 8b3d 78d4 33be d1a7 d03e
00000350: fbe0 0abf b634 34bd f05e c5be fb8a 043f
00000360: 4e00 203e 6682 0abc 36f6 a9be 3537 91be
00000370: 0de8 bf3e cf11 3a3f 4187 023f f9de ba3d
00000380: e27c 28be 8ce3 e5be 42c7 13be b8fe 803e
00000390: 0027 b9bc ba86 563f 35f9 c83d 928b 1a3d
000003a0: 9d7a d83e b9fb e7be a213 943e 503b 0fbf
000003b0: 1ea7 223f 86cd d8bd 52a0 8a3e 74b8 aa3e
000003c0: a6e8 c9bd 9cdc 1abf fbfa 09bf 18e6 bc3e
000003d0: 3ac2 8b3d 16fa a33e ad74 c83e 78c8 eebd
000003e0: 73bd 19be 1808 1cbe 442c 9bbe 313f 403e
000003f0: 4930 25bd c2d8 9cbd 6419 0f3e 301a efbe

network_body._body_endoder.seq_layers.0.bias f4 [128]
-0.004478019 -0.0041512786 1.1465098e-05 -0.0015539895 -0.0038253395 -0.0069836546 -0.009221742 -0.0040140827
-0.003941015 -0.010862103 0.0013519162 -0.0042833663 -0.0036448685 -0.01007387 -0.0063309297 -0.0034416665
-0.00095614535 0.00019654796 0.003181789 0.00079395727 -0.007876064 -0.0039812843 -0.0013770517 -0.003681831
-0.0023602385 -0.006415506 0.0035284914 0.00070738624 -0.004843571 -0.0039476976 -0.006482328 -0.0026134201
0.0019444647 -0.0064583602 -0.00014167564 -0.0017195474 -0.0006375585 0.005311018 -0.0026085859 0.00085941073
-0.0022354268 0.0007794957 -0.00024140587 -0.008756457 -0.0048699095 -0.004776384 1.862509e-05 -0.0057912767
-0.0031561002 -0.0049889325 -0.0013762502 -5.147695e-05 0.0026058212 -0.00346469 -0.00302133 0.00012804696
-0.0011949944 -0.0027090576 -0.0008916485 0.0021861405 0.0022445554 -0.0016043234 -0.0040214714 0.0012681833
-0.0029072904 0.0040523517 -0.0068369554 -0.0024378127 0.0018331527 -0.0031256163 -0.00038005892 0.002410665
0.0019726262 -0.0027876678 -0.0026098846 -0.0013288268 -0.0011980863 -0.006026011 -0.005704602 -0.0020160584
-0.0035676344 3.856056e-05 -0.0024906925 0.00030870465 0.00028255896 -0.0012102138 0.0005380904 0.003439642
0.00016057084 -0.0008117141 0.0033382135 -0.004508759 0.00623624 -0.0039013163 0.0020618953 -0.0028632046
-0.0007699282 -0.0072047105 -0.0005303414 -0.015814109 -0.009176412 0.0001774569 -0.0006076122 -0.0012684508
0.0015352239 0.003793657 -0.0011886864 9.765953e-07 0.006175799 -0.0010580216 -0.0015304318 0.0009252282
-0.0040120427 -0.0033934116 -0.0036114373 -0.0043246057 0.0009743612 0.00030956548 -0.010015113 -0.0006340592
0.00023809331 0.00057039293 -0.003972501 -0.0023019735 -0.0024265395 -0.0015274575 -0.0064668665 -0.0041063954
00000000: 59bc 92bb 7307 88bb 395a 4037 3caf cbba
00000010: 8cb2 7abb 24d7 e4bb ca16 17bc 9188 83bb
00000020: a123 81bb f6f6 31bc c832 b13a 7b5b 8cbb
00000030: bfde 6ebb e00c 25bc b073 cfbb 958d 61bb
00000040: d4a5 7aba 7118 4e39 9085 503b 9221 503a
00000050: 9b0a 01bc 6f75 82bb 307e b4ba e04a 71bb
00000060: 3bae 1abb 2a39 d2bb 433e 673b e36f 393a
00000070: d2b6 9ebb b05b 81bb b569 d4bb ea45 2bbb
00000080: 69dd fe3a a7a0 d3bb c48e 14b9 7062 e1ba
00000090: d421 27ba 0c08 ae3b cff4 2abb 144a 613a
000000a0: 3d80 12bb 1257 4c3a e521 7db9 3e77 0fbc
000000b0: c393 9fbb 3783 9cbb 143d 9c37 c0c4 bdbb
000000c0: 93d6 4ebb 337a a3bb 4b63 b4ba f4e8 57b8
000000d0: 6dc6 2a3b da0f 63bb 8201 46bb 5844 0639
000000e0: 5ca1 9cba 728a 31bb 85bd 69ba 5a45 0f3b
000000f0: 6419 133b 2948 d2ba 8cc6 83bb 2c39 a63a
00000100: 3d88 3ebb 97c9 843b 8a08 e0bb b6c3 1fbb
00000110: 6646 f03a 24d7 4cbb a542 c7b9 3ffc 1d3b
00000120: 2d47 013b 4eb1 36bb 990a 2bbb 072c aeba
00000130: 1b09 9dba d875 c5bb aced babb d91f 04bb
00000140: f9ce 69bb 16bc 2138 e33a 23bb a3d9 a139
00000150: 6c24 9439 09a0 9eba a30e 0d3a 9e6b 613b
00000160: e85e 2839 36c9 54ba eec5 5a3b 36be 93bb
00000170: 5f59 cc3b 3aad 7fbb dd20 073b 9aa4 3bbb
00000180: 02d5 49ba 7e15 ecbb 9c06 0bba 978c 81bc
00000190: a958 16bc b913 3a39 2a48 1fba 2542 a6ba
000001a0: 9139 c93a 019f 783b b2cd 9bba 8f13 8335
000001b0: 5b5e ca3b 50ad 8aba c598 c8ba 038b 723a
000001c0: 7477 83bb 0064 5ebb ddad 6cbb 6cb5 8dbb
000001d0: 466c 7f3a 2d4d a239 6e16 24bc fe36 26ba
000001e0: b0a8 7939 6c86 153a c12b 82bb b5dc 16bb
000001f0: 9406 1fbb f834 c8ba 02e8 d3bb f18e 86bb

network_body._body_endoder.seq_layers.2.weight f4 [128, 128]
-0.023276376 -0.019571463 0.015353723 -0.025399277 -0.106862634 0.01939484 0.16079852 -0.08920108
-0.09952294 0.07893093 -0.06176224 0.095872946 -0.08343412 -0.033572096 -0.0009760046 -0.13037431
0.019683879 -0.033527058 -0.03203579 -0.087490276 0.090499125 -0.033263642 -0.061584543 0.05876376
0.068069585 0.04218333 0.0008233596 -0.177167 -0.09419551 0.042538762 0.09835992 -0.08137262
-0.048165698 -0.0046685976 -0.07970613 0.18424186 -0.013239737 0.015729144 -0.041757096 -0.08912296
0.13692574 0.07669699 0.17997082 0.23895137 -0.058254436 0.16107981 -0.09283069 0.0073384894
-0.079922475 0.0313634 0.034672573 -0.083936654 -0.057241514 0.070922524 0.028503712 0.10082658
0.003835342 -0.11669502 0.058402624 -0.13999948 0.017083816 -0.00887932 0.06301121 0.04475993
-0.006472659 -0.08311236 -0.034009546 -0.031734332 0.06032536 -0.18983813 -0.113406695 0.12722713
-0.17055659 0.09625122 0.05596926 0.09492964 0.09598622 0.08750502 -0.16691405 0.13203377
0.047632318 -0.032595716 -0.016926914 -0.028421076 0.10209737 -0.113068946 0.14619389 0.020970382
-0.032270502 0.08364199 -0.025749214 -0.032753956 0.03657626 0.06299659 -0.015666772 0.07030991
-0.11520768 0.003297733 0.03318916 -0.061254207 -0.026796304 0.04625226 -0.047429062 -0.01765657
0.0144175375 -0.0014735693 0.012591416 0.004736101 -0.09140443 -0.04995219 -0.141816 0.07384185
-0.04522756 -0.07462322 -0.0014663058 -0.07874632 0.011183508 0.14446287 -0.08919394 -0.01602834
0.11916932 0.0017241143 0.06325612 0.14987844 -0.08833303 0.07142914 -0.0002784541 -0.09190497
-0.029961843 -0.021498606 0.0033208712 0.080129005 0.008456464 -0.16722828 -0.089701034 0.03697893
-0.18940786 0.027146902 -0.012699861 -0.027839994 0.071674086 -0.070873246 0.07633133 0.0097483555
-0.097195506 0.20618014 -0.01598775 -0.03888946 -0.027806837 -0.06897932 0.07412249 -0.03565282
0.08726158 0.072537355 -0.09266162 0.028427726 0.040077213 0.13840559 0.09524047 -0.13983753
-0.02554948 0.079628155 -0.013060817 -0.096082024 -0.17288265 0.02565107 0.030575164 -0.16500114
-0.11948328 0.052609254 0.009128352 0.038779695 -0.10072273 0.14116998 0.15191625 0.013290535
0.082710534 -0.06295642 0.1089703 -0.096853755 -0.09653796 0.1001219 -0.078920096 -0.023842458
-0.0070434916 -0.03903122 0.12158156 -0.17726643 -0.05295281 0.053457513 -0.023408309 -0.021968948
0.023945622 0.053486332 0.14494692 0.053378608 0.008014669 -0.067274354 -0.0438837 0.07974305
0.16733636 0.02245525 0.08881716 0.10535364 -0.049318574 0.011485507 -0.00010466854 -0.014388944
0.02441118 0.0040370594 0.053550612 -0.032013033 -0.10030734 0.0006997436 -0.06646254 0.009429513
0.025439043 -0.08664762 0.0079086255 -0.09555865 -0.1264464 0.17932902 0.094319016 0.21659093
0.016645 6.289651e-05 -0.10911354 -0.17062695 -0.07908617 -0.043454714 -0.058845837 -0.0028512978
0.084704556 -0.076673165 -0.011485837 0.121234156 -0.0781204 0.016342223 0.04739135 0.019032193
-0.04262465 0.002228583 0.030914802 0.12401491 0.10874893 -0.04608989 0.10501208 -0.0017805154
-0.056598175 -0.06418766 -0.10141688 0.048268825 -0.035293065 0.067857385 0.031705547 0.06471107
00000000: 19ae bebc 5554 a0bc 2f8e 7b3c 2512 d0bc
00000010: ccda dabd ede1 9e3c 5ea8 243e 0eaf b6bd
00000020: afd2 cbbd 8aa6 a13d 67fa 7cbd 0959 c43d
00000030: 82df aabd e582 09bd 8fda 7fba d880 05be
00000040: 1640 a13c ab53 09bd f637 03bd 1a2e b3bd
00000050: 9b57 b93d 753f 08bd 1340 7cbd 45b2 703d
00000060: 1168 8b3d 6dc8 2c3d bad6 573a 446b 35be
00000070: 93e9 c0bd 203d 2e3d ed70 c93d b0a6 a6bd
00000080: 6549 45bd 09fb 98bb f83c a3bd e6a9 3c3e
00000090: 7beb 58bc 68da 803c 7d09 2bbd 1986 b6bd
000000a0: 4336 0c3e 5013 9d3d 454a 383e abaf 743e
000000b0: 349c 6ebd 1bf2 243e 041e bebd b677 f03b
000000c0: 65ae a3bd e976 003d d404 0e3d fbe6 abbd
000000d0: 1476 6abd d43f 913d 9e80 e93c 2a7e ce3d
000000e0: 5c5a 7b3b ccfd eebd 9737 6f3d 065c 0fbe
000000f0: 5cf3 8b3c 917a 11bc 050c 813d 3056 373d
00000100: 9918 d4bb d036 aabd 984d 0bbd dcfb 01bd
00000110: ba17 773d ed64 42be c541 e8bd d447 023e
00000120: 63a6 2ebe 5c1f c53d 0640 653d 796a c23d
00000130: 6c94 c43d d535 b33d 84eb 2abe dc33 073e
00000140: 1b1a 433d 1683 05bd 50aa 8abc 51d3 e8bc
00000150: 6d18 d13d b190 e7bd dab3 153e 14ca ab3c
00000160: 132e 04bd 7e4c ab3d 04f0 d2bc 0329 06bd
00000170: fdd0 153d 5b04 813d 9a57 80bc a4fe 8f3d
00000180: 01f2 ebbd c71e 583b 5bf1 073d b1e5 7abd
00000190: ec83 dbbc 0373 3d3d fa44 42bd 83a4 90bc
000001a0: 8937 6c3c c824 c1ba 3a4c 4e3c 4b31 9b3b
000001b0: 3f32 bbbd ab9a 4cbd 3738 11be 653a 973d
000001c0: 8940 39bd 0fd4 98bd 0f31 c0ba c045 a1bd
000001d0: 083b 373c 13ee 133e 50ab b6bd de4d 83bc
000001e0: 0b0f f43d adfb e13a 6d8c 813d bc79 193e
000001f0: f3e7 b4bd 7149 923d 7afd 91b9 ac38 bcbd
00000200: 8a72 f5bc d81d b0bc f9a2 593b ad1a a43d
00000210: fb8c 0a3c e43d 2bbe 2db5 b7bd 3877 173d
00000220: 22f4 41be 2e63 de3c 1413 50bc b310 e4bc
00000230: ddc9 923d fe25 91bd 9a53 9c3d 91b7 1f3c
00000240: 700e c7bd e320 533e bef8 82bc 8e4a 1fbd
00000250: 2acb e3bc 0845 8dbd 88cd 973d b108 12bd
00000260: 33b6 b23d 778e 943d 60c5 bdbd 43e1 e83c
00000270: 0128 243d 32ba 0d3e 6f0d c33d 9231 0fbe
00000280: 254d d1bc 1614 a33d 09fd 55bc a7c6 c4bd
00000290: 2608 31be 3122 d23c c478 fa3c 0ff6 28be
000002a0: a6b3 f4bd cd7c 573d 158f 153c 75d7 1e3d
000002b0: b847 cebd dd8e 103e ef8f 1b3e 8bc0 593c
000002c0: 2464 a93d 4cef 80bd d22b df3d 435b c6bd
000002d0: b2b5 c5bd b60c cd3d dca0 a1bd 4251 c3bc
000002e0: 17cd e6bb 33df 1fbd c1ff f83d 5585 35be
000002f0: 0ce5 58bd 44f6 5a3d c8c2 bfbc 39f8 b3bc
00000300: 9c29 c43c 7c14 5b3d f76c 143e 87a3 5a3d
00000310: f54f 033c 23c7 89bd 65bf 33bd 5350 a33d
00000320: 395a 2b3e 13f4 b73c c5e5 b53d a6c3 d73d
00000330: 4602 4abd b52d 3c3c 7f81 dbb8 9bbf 6bbc
00000340: f4f9 c73c 4f49 843b e357 5b3d 1920 03bd
00000350: ef6d cdbd 006f 373a 831d 88bd 3e7e 1a3c
00000360: 8a65 d03c 4f74 b1bd 2e93 013c 41b4 c3bd
00000370: 2a7b 01be 07a2 373e 542a c13d 03ca 5d3e
00000380: 185b 883c 4fe7 8338 eb76 dfbd d5b8 2ebe
00000390: eef7 a1bd 92fd 31bd 5508 71bd d7dc 3abb
000003a0: 9579 ad3d d206 9dbd 182f 3cbc 9d49 f83d
000003b0: 97fd 9fbd 20e0 853c 6f1d 423d 67e9 9b3c
000003c0: 2f97 2ebd 6b0d 123b 0a41 fd3c 87fb fd3d
000003d0: c2b7 de3d c1c8 3cbd 9310 d73d 2f60 e9ba
000003e0: 7dd3 67bd d274 83bd a7b3 cfbd 88b5 453d
000003f0: 768f 10bd d0f8 8a3d addd 013d 3d87 843d

network_body._body_endoder.seq_layers.2.bias f4 [128]
-0.0154035995 0.00042673375 -0.0006535265 -0.0010338966 -0.0021612437 0.00064140116 -0.0077538234 -0.001844412
-0.002511697 -0.009157635 0.0019137053 -0.007979098 -0.0020277526 -0.006509383 -0.0049467776 -0.0005660615
-0.0007318229 -0.0019592466 -0.00367159 -0.00012021427 -0.009865048 -9.313663e-05 -0.00029660002 0.0005092804
-0.008576043 0.0002254828 -0.000797517 -0.0013425536 -0.00061614916 -0.001025714 -0.0014445955 -0.0063781715
-0.0009299516 -0.004352115 0.00056041323 -0.0025909645 0.00026696353 -0.0016766549 -0.0046631093 -0.000753446
-0.0028827623 -0.0013175852 0.00038154778 -0.0033912323 -0.0022726734 -0.004205474 -0.0027536813 -0.0015867001
-0.0003024877 -0.00040836004 -0.005887864 -0.0013498545 -0.0024042544 -0.0036302889 -0.0022808188 -0.0058476296
-0.0006106588 -0.0053937123 -0.006576466 -0.002737632 -0.00081679045 -0.00077713106 -0.0067437314 -0.0029168942
-0.0032215705 -0.0019085578 -0.0009710943 -0.0033692592 -0.007446032 -0.0004081036 -0.0044775694 -0.0028419807
-0.0012362184 -0.00209262 -0.004797076 -0.001791911 -0.0029579964 -0.0018191889 -0.0014470257 -0.001507654
-0.00090118276 0.00029342502 0.0010817158 0.005781567 -0.0013004706 -0.0011827368 -0.0033599795 -0.0019434154
-0.0050820913 -0.0007657411 -0.00058373396 -0.0017020445 -0.0034815911 -0.0046148715 -0.004691084 -0.005546153
-0.0007837962 -0.000636134 -0.004004601 -0.0017148185 -0.0030856633 -0.0031866576 -0.00092046487 -0.0023063088
-0.0030945586 0.0034256894 8.112359e-05 -0.0043085623 -0.0074814144 0.00019528682 -0.0013211779 -0.0012021383
-0.0033211538 -0.002770741 0.001844345 -0.0011725731 -0.0023290848 8.5726e-05 -0.0019301707 -0.0032325538
-0.004048964 0.004222018 -0.006243423 -0.0015443839 -0.0024472666 0.00016702252 -0.0042133015 -0.0054355976
00000000: 615f 7cbc 3cbb df39 6c51 2bba d083 87ba
00000010: a7a3 0dbb b423 283a c913 febb 32c0 f1ba
00000020: 489b 24bb e809 16bc 4bd5 fa3a c3ba 02bc
00000030: 0be4 04bb aa4c d5bb 9418 a2bb bf63 14ba
00000040: ced7 3fba b466 00bb 0f9f 70bb 8b1b fcb8
00000050: 03a1 21bc 5952 c3b8 fb80 9bb9 3b81 053a
00000060: 8882 0cbc 946f 6c39 7610 51ba a0f8 afba
00000070: 1285 21ba 4071 86ba 9558 bdba fbff d0bb
00000080: ffc7 73ba 309c 8ebb b2e8 123a 2ccd 29bb
00000090: 3df7 8b39 34c3 dbba ffcc 98bb e882 45ba
000000a0: baec 3cbb d3b2 acba 7a0a c839 703f 5ebb
000000b0: 22f1 14bb 13ce 89bb 1b77 34bb d2f8 cfba
000000c0: 3697 9eb9 2819 d6b9 fcee c0bb 9aed b0ba
000000d0: b290 1dbb 24ea 6dbb ca79 15bb 799d bfbb
000000e0: 9e14 20ba bdbd b0bb 657f d7bb d869 33bb
000000f0: e11d 56ba 62b8 4bba 85fa dcbb 5d29 3fbb
00000100: fc20 53bb 9328 faba 0991 7eba cace 5cbb
00000110: d8fd f3bb bdf6 d5b9 93b8 92bb 8640 3abb
00000120: 9b08 a2ba 5624 09bb ca30 9dbb 8ede eaba
00000130: f2da 41bb da71 eeba 20aa bdba 799c c5ba
00000140: 5a3d 6cba d7d6 9939 5cc8 8d3a 4d73 bd3b
00000150: 8d74 aaba 1006 9bba 1a33 5cbb 33ba feba
00000160: ac87 a6bb 04bc 48ba b905 19ba 2317 dfba
00000170: 682b 64bb 5938 97bb aab7 99bb 81bc b5bb
00000180: ac77 4dba 3bc2 26ba 0739 83bb c3c3 e0ba
00000190: d738 4abb 3ed7 50bb 5a4b 71ba 7125 17bb
000001a0: 14ce 4abb 8881 603b e520 aa38 d72e 8dbb
000001b0: a726 f5bb e8c5 4c39 602b adba 1191 9dba
000001c0: b7a7 59bb 5295 35bb f3bd f13a 06b1 99ba
000001d0: 8fa3 18bb ccc7 b338 c8fd fcba 41d9 53bb
000001e0: 2cad 84bb db58 8a3b a195 ccbb ed6c caba
000001f0: 5262 20bb c422 2f39 bc0f 8abb 191d b2bb

action_model._continuous_distribution.log_sigma f4 [1, 2]
0.019347135 0.04316442
00000000: e27d 9e3c 2dcd 303d

action_model._continuous_distribution.mu.weight f4 [2, 128]
-0.0002059869 0.0076622344 -0.019135175 -0.011206906 0.020342674 0.014561839 0.008839947 0.019110592
0.0027931659 -0.009767375 -0.025543438 -0.0271323 -0.00041838552 0.000262214 0.022315884 0.040216383
-0.036840912 -0.009857685 -0.0021947422 0.009697851 -0.02510114 0.015698466 -0.020272264 0.010862975
-0.0075100926 -0.021616291 0.023591168 0.0018285878 -0.013178304 0.02278659 0.006882771 0.0044125165
-0.018653028 0.026941419 -0.007368979 0.008879025 -0.025524 -0.015756674 0.0016595728 -0.01669764
0.009687196 0.0090512615 -0.0045547322 0.01658027 0.0030058417 -0.008011542 -0.0077398876 0.014999167
-0.022296645 -0.0044897576 0.0032204213 0.0057319556 0.0008426846 -0.008664699 0.003958013 -0.0243512
-0.035558254 0.0028156315 0.00495376 -0.007444835 0.017496342 0.0020594657 -0.021536995 0.007697621
0.0049620885 -0.0032858497 -0.0040096957 -0.0023752677 -0.021845017 -0.017688967 0.0009583698 -0.0062804655
0.016449746 0.025321564 0.022383947 0.035930328 -0.0015066173 -0.008298137 -0.01531303 -0.020123089
-0.020671368 0.01505574 -0.011711494 -0.03823858 0.0035008928 -0.008096063 -0.007606114 -0.026313944
0.0030885974 0.00072982383 0.032495044 0.005204682 0.008179817 -0.0107283555 -0.008161508 0.0191392
-0.009514771 0.0054963096 0.009755793 -0.028413098 -0.010972165 0.0027895956 0.027257476 0.0053373636
0.0023079931 -0.026183214 -0.007423451 0.0024276203 -0.010091386 -0.010376738 0.017583655 0.00201777
0.019249348 0.004899398 -0.011889798 -0.02563382 -0.026342105 0.023794804 -0.010359273 0.027918508
0.0017790314 0.014127742 0.0026510952 -0.022072127 -0.014116799 0.010889461 0.009655849 0.021908931
0.0003450027 0.006114212 0.0033859352 0.0019083959 -0.0054804026 0.023546966 0.0044996226 -0.012535913
0.0054315436 9.9800185e-05 -0.0151192825 -0.014965725 -0.01492191 0.0003030625 0.003698697 0.0013317937
-0.002710434 0.003555891 0.0024610516 0.017851744 -0.026293479 0.015939025 0.008574849 0.015471239
0.00843793 0.018152023 -0.013823913 -0.04084897 0.005049148 0.024977187 0.020974863 0.013754935
-0.0012465001 0.009118513 0.0009591261 0.014028633 -0.011052662 -0.01174987 -0.0054953755 0.021129005
0.021122228 -0.012743191 0.008124853 0.0019506027 -0.010216547 -0.01057143 -0.006161433 -0.004305329
0.012347082 0.0039143995 0.008482861 0.006397834 -0.007804126 0.003195501 -0.025649207 -0.0055936784
-0.010782678 0.01037238 0.0049705664 -0.0007806019 -0.029359609 0.010372908 0.028716588 -0.006836046
0.0061786897 0.004750565 0.008437583 -0.0010465172 -0.004671995 0.0029030673 0.003295743 -0.03406401
-0.044063948 0.008072956 0.007948897 0.002316835 0.0056880116 0.018613618 -0.020745335 0.008338892
-0.006187252 -0.006720115 -0.0016695748 -0.005263198 -0.024625419 0.0050975434 -0.031464543 0.032962855
-0.0022812996 0.010873991 0.022504156 0.009407896 -0.008573522 -0.007662262 -0.025362063 0.006205865
0.0028493642 0.011451869 0.0038259856 -0.017307773 -0.0170463 0.03360786 -0.009926895 -0.0073368163
-0.007601686 0.0060701347 0.03775321 0.0016082164 0.00093869324 0.0025265568 -0.011037261 0.0061564925
-0.011032359 -0.0017394796 -0.0038916285 -0.003671317 -0.035178944 -0.0134257 -0.030621149 -0.0083184885
0.0005826072 0.009549173 0.003304945 -0.032080553 -0.021562355 0.017470153 0.0091185635 -0.018062105
00000000: 30fe 57b9 7b13 fb3b 5fc1 9cbc 2c9d 37bc
00000010: aea5 a63c c894 6e3c 6dd5 103c d18d 9c3c
00000020: 8c0d 373b 5707 20bc 7940 d1bc 8f44 debc
00000030: c15a dbb9 c479 8939 cdcf b63c efb9 243d
00000040: 7fe6 16bd 2182 21bc aad5 0fbb bce3 1e3c
00000050: e8a0 cdbc 129a 803c 0512 a6bc 9ffa 313c
00000060: 3917 f6bb a614 b1bc 4442 c13c 3aad ef3a
00000070: d0e9 57bc f1aa ba3c de88 e13b df96 903b
00000080: 3cce 98bc 40b4 dc3c 7a77 f1bb 5479 113c
00000090: b517 d1bc 2414 81bc 0686 d93a 7dc9 88bc
000000a0: 0cb7 1e3c be4b 143c dd3f 95bb 59d3 873c
000000b0: a8fd 443b d842 03bc e29e fdbb 11bf 753c
000000c0: 74a7 b6bc d11e 93bb b40d 533b 21d3 bb3b
000000d0: 9be7 5c3a 62f6 0dbc 38b2 813b 2b7c c7bc
000000e0: 88a5 11bd 7586 383b 2753 a23b cdf3 f3bb
000000f0: 7d54 8f3c 1af8 063b 5a6e b0bc 533c fc3b
00000100: 0499 a23b 6957 57bb c463 83bb 61aa 1bbb
00000110: 52f4 b2bc 74e8 90bc 1c3b 7b3a 5dcc cdbb
00000120: 9ec1 863c 2b6f cf3c 8a5e b73c ae2b 133d
00000130: b079 c5ba e9f4 07bc 81e3 7abc 2dd9 a4bc
00000140: 0057 a9bc 5aac 763c 91e1 3fbc 0fa0 1cbd
00000150: 3c6f 653b 59a5 04bc b53c f9bb 5790 d7bc
00000160: 116a 4a3b a651 3f3a 8619 053d 098c aa3b
00000170: a404 063c fcc5 2fbc d8b7 05bc d0c9 9c3c
00000180: d8e3 1bbc 631a b43b c3d6 1f3c 96c2 e8bc
00000190: 98c4 33bc a6d1 363b 124b df3c 0de5 ae3b
000001a0: b341 173b 2e7e d6bc 6c40 f3bb b618 1f3b
000001b0: 5756 25bc 3203 2abc 990b 903c 903c 043b
000001c0: cfb0 9d3c 218b a03b 6dcd 42bc 04fe d1bc
000001d0: 66cb d7bc 52ed c23c f1b9 29bc 5bb5 e43c
000001e0: 632e e93a 0b78 673c ffbd 2d3b 9bd0 b4bc
000001f0: 264a 67bc b669 323c 9133 1e3c 5c7a b33c
00000200: 7be1 b439 ba59 c83b 91e6 5d3b 2423 fa3a
00000210: f394 b3bb 91e5 c03c 9271 933b 6e63 4dbc
00000220: 17fb b13b d14b d138 deb6 77bc cd32 75bc
00000230: 077b 74bc 5ce4 9e39 d765 723b 958f ae3a
00000240: 89a1 31bb f409 693b 9849 213b d23d 923c
00000250: 6c65 d7bc 8f92 823c 867d 0c3c 147b 7d3c
00000260: 3e3f 0a3c 8db3 943c b27d 62bc 4051 27bd
00000270: 5373 a53b f59c cc3c 7ad3 ab3c 615c 613c
00000280: 9a61 a3ba d165 153c dd6d 7b3a 5ad8 653c
00000290: 3916 35bc 8782 40bc 8d12 b4bb bc16 ad3c
000002a0: 8608 ad3c d1c8 50bc 1a1e 053c 5eab ff3a
000002b0: 4e63 27bc cb33 2dbc d9e5 c9bb b813 8dbb
000002c0: 6a4b 4a3c 5d44 803b b3fb 0a3c eca4 d13b
000002d0: c1b9 ffbb 9c6b 513b 491e d2bc 2d4b b7bb
000002e0: d4a9 30bc eaf0 293c 22e0 a23b 4fa1 4cba
000002f0: 9083 f0bc 21f3 293c 0d3f eb3c e900 e0bb
00000300: 9b76 ca3b a1aa 9b3b ca3d 0a3c 4a2b 89ba
00000310: 8917 99bb 6341 3e3b 64fd 573b b486 0bbd
00000320: 667c 34bd 6f44 043c 173c 023c 0bd6 173b
00000330: 8062 ba3b 967b 983c 1ff2 a9bc d99f 083c
00000340: 6ebe cabb 6934 dcbb a2d5 daba e876 acbb
00000350: 3fbb c9bc 4b09 a73b f7e0 00bd 0f04 073d
00000360: db81 15bb d328 323c a35a b83c 9323 1a3c
00000370: f577 0cbc b613 fbbb 1ac4 cfbc 925a cb3b
00000380: 66bc 3a3b 9fa0 3b3c 63bd 7a3b 08c9 8dbc
00000390: afa4 8bbc 65a8 093d 6aa4 22bc ad69 f0bb
000003a0: 9017 f9bb fbe7 c63b 1ca3 1a3d caca d23a
000003b0: a312 763a 9794 253b a1d5 34bc 67bc c93b
000003c0: 11c1 34bc 40ff e3ba b10a 7fbb 7a9a 70bb
000003d0: cc17 10bd 78f7 5bbc 34d9 fabc 454a 08bc
000003e0: 1bba 183a 2274 1c3c c797 583b e666 03bd
000003f0: 89a3 b0bc 911d 8f3c 0766 153c fbf6 93bc

action_model._continuous_distribution.mu.bias f4 [2]
-0.00013282654 0.0009887369
00000000: 5a47 0bb9 8198 813a
